model/wine_model.pth (torch, 3622 bytes, 5 tensors)

fc1.weight f4 [12, 12]
-0.33855546 -0.13830891 0.2471703 0.1281256 0.031792417 0.058939096 0.13292536 -0.03791838
-0.3610205 -0.18242596 0.003419459 0.093312904 -0.25262165 -0.27997726 0.23597477 0.09799587
0.051565975 0.0069821393 -0.0087112505 0.14713858 0.0028239032 -0.07374208 -0.0060829907 -0.23633191
0.112809144 0.11944847 -0.22751424 0.24993955 0.20627317 0.1708185 -0.2500565 -0.07999538
0.2678089 0.28235877 -0.24880251 -0.059404608 -0.28992245 0.0056726187 -0.10625997 0.20916547
0.15744846 -0.15160687 -0.15844636 -0.0614699 0.18142694 -0.090747796 0.11374686 0.064774
0.30634186 0.33353388 0.2770947 0.0079131955 0.48157418 0.14480664 -0.046754867 0.4033967
0.035358343 0.15364252 0.09092558 0.13670778 0.06939071 0.121533886 0.06459488 0.12952274
-0.044486817 -0.23318493 -0.08454299 -0.0989174 -0.28092778 0.1369059 -0.12923218 -0.107193775
-0.24714725 -0.28673008 0.03365033 -0.036686126 -0.38604596 -0.10116787 0.15597902 0.13981545
-0.2712566 -0.016300226 0.03376956 0.034223583 -0.041599315 -0.18221518 0.1136757 0.3291394
-0.25932798 0.18112594 0.25846794 -0.018202128 -0.22658755 -0.16506904 0.10297145 0.056741882
-0.08755125 0.263014 0.240372 -0.24372126 -0.022774879 0.21203703 -0.15123346 0.1810258
0.03553757 -0.1612937 -0.2574707 0.15397145 0.03421565 -0.059962317 -0.16031204 0.03125557
0.25624564 -0.09012619 0.008962914 -0.2703173 0.055639863 -0.024316823 -0.15085095 -0.29625866
0.4202859 0.50371283 -0.046429697 -0.24737833 -0.020998534 0.02688919 0.019126661 0.30019054
0.32794994 0.35850018 0.17307359 -0.019306542 0.3932373 0.07262111 0.17564096 -0.055270337
0.47777686 0.030284693 -0.1277966 0.41649002 0.4122402 0.20122951 0.22788063 0.23990187
00000000: 2457 adbe daa0 0dbe 361a 7d3e 5b33 033e
00000010: c438 023d 1f6a 713d 961d 083e 4e50 1bbd
00000020: aed7 b8be dfcd 3abe 0119 603b d61a bf3d
00000030: a057 81be 2e59 8fbe 5fa3 713e 0fb2 c83d
00000040: d836 533d 6eca e43b a2b9 0ebc 7fab 163e
00000050: 3c11 393b 1606 97bd d353 c7bb fe00 72be
00000060: 7b08 e73d 66a1 f43d 7ef9 68be 27f0 7f3e
00000070: 4639 533e 0beb 2e3e 6807 80be 9ed4 a3bd
00000080: 401e 893e 5491 903e 16c6 7ebe 3f52 73bd
00000090: b770 94be 60e1 b93b d49e d9bd 792f 563e
000000a0: 2b3a 213e d53e 1bbe c33f 22be ddc7 7bbd
000000b0: fcc7 393e fbd9 b9bd 1df4 e83d 3ba8 843d
000000c0: d7d8 9c3e f4c4 aa3e 5bdf 8d3e 59a6 013c
000000d0: e490 f63e 3148 143e 0882 3fbd 038a ce3e
000000e0: e9d3 103d 7754 1d3e 3137 ba3d 20fd 0b3e
000000f0: b71c 8e3d c2e6 f83d 524a 843d 9ca1 043e
00000100: cf37 36bd 08c8 6ebe e024 adbd 3595 cabd
00000110: c4d5 8fbe 0f31 0c3e 7155 04be 6988 dbbd
00000120: 2b14 7dbe 49ce 92be eed4 093d 3144 16bd
00000130: d1a7 c5be 1a31 cfbd f7b8 1f3e c82b 0f3e
00000140: 25e2 8abe 0d88 85bc f351 0a3d 072e 0c3d
00000150: 0b64 2abd 9e96 3abe cece e83d f684 a83e
00000160: a3c6 84be 1479 393e e955 843e a11c 95bc
00000170: 9106 68be dc07 29be b2e2 d23d 2d6a 683d
00000180: 124e b3bd c5a9 863e 1424 763e 1192 79be
00000190: 6292 babc 3c20 593e f2dc 1abe d45e 393e
000001a0: d88f 113d 2d2a 25be 33d3 83be b1aa 1d3e
000001b0: b625 0c3d 0c9b 75bd d728 24be d705 003d
000001c0: a132 833e 1494 b8bd 30d9 123c 0767 8abe
000001d0: a0e6 633d 1334 c7bc ac78 1abe 37af 97be
000001e0: b72f d73e 53f3 003f 112d 3ebd bf50 7dbe
000001f0: 1e05 acbc b846 dc3c 84af 9c3c 93b2 993e
00000200: 0ee9 a73e 568d b73e 343a 313e c128 9ebc
00000210: 6656 c93e 60ba 943d 39db 333e 2663 62bd
00000220: 2b9f f43e 9b17 f83c 1ddd 02be 2e3e d53e
00000230: 2611 d33e 1c0f 4e3e 8a59 693e d6a8 753e

fc1.bias f4 [12]
-0.1825501 0.03937419 0.049043305 0.076774396 0.124220215 -0.0042873477 -0.36269423 -0.16846806
0.039424736 -0.034406632 0.17131937 0.24606746
00000000: 6aee 3abe d546 213d a2e1 483d e53b 9d3d
00000010: 2b67 fe3d e17c 8cbb 0fb3 b9be e482 2cbe
00000020: d57b 213d f8ed 0cbd 586e 2f3e 1cf9 7b3e

fc2.weight f4 [9, 12]
0.0582501 0.26199627 0.11424055 -0.09023156 0.28298208 -0.046550997 -0.18977633 -0.09250149
0.121681616 0.12043629 0.27744618 0.081921384 0.3105101 0.01975158 0.03203769 -0.23035207
-0.22307353 -0.1885062 0.31252846 -0.18331346 0.067754075 0.08518458 0.022069607 0.31710893
0.1409252 0.15315543 0.0398987 0.04666942 0.2396516 -0.19766852 -0.3633293 0.015050516
-0.10009016 -0.14878015 -0.06137076 0.10780598 0.27357027 -0.24397275 0.21472108 0.18045886
-0.10279504 -0.0591227 0.30229503 0.23199251 -0.030256212 -0.12636624 -0.22594388 -0.23495512
0.03458008 -0.18693407 -0.22432251 -0.23982067 0.4214372 0.06928482 -0.32936105 0.25194353
-0.10933115 0.07877582 0.31866354 0.31866822 0.2623318 0.23281817 0.28289443 0.23596345
-0.3706411 0.18536545 -0.07673199 0.21732831 0.023965422 0.05345006 0.013323602 -0.16760239
-0.112752885 0.17940024 0.19129811 0.12090705 0.046298 -0.22066127 -0.14749043 -0.2992045
-0.2675148 -0.039526973 -0.16334954 0.16540498 -0.27870497 -0.029483164 0.0212421 0.23806237
-0.06117752 -0.026508354 -0.23796219 -0.13578947 -0.26608863 0.27681 -0.007761901 -0.10555477
-0.04553046 0.043757748 0.14570107 0.11616112 -0.03763802 -0.21035731 0.117548905 -0.23285384
0.2161574 0.07564347 0.33747762 0.083436646
00000000: a897 6e3d 6024 863e f3f6 e93d 53cb b8bd
00000010: 07e3 903e 42ac 3ebd ba54 42be 6c71 bdbd
00000020: 3634 f93d 4da7 f63d 6d0d 8e3e 66c6 a73d
00000030: 2efb 9e3e 11ce a13c f439 033d 6ae1 6bbe
00000040: 636d 64be c507 41be bb03 a03e 86b6 3bbe
00000050: a6c2 8a3d 4175 ae3d 52cb b43c 1a5c a23e
00000060: b24e 103e c7d4 1c3e d26c 233d 6f28 3f3d
00000070: 3b67 753e 9e69 4abe 4c06 babe 7196 763c
00000080: 12fc ccbd d359 18be e85f 7bbd 62c9 dc3d
00000090: 6711 8c3e fed3 79be d8df 5b3e 35ca 383e
000000a0: 3586 d2bd a52a 72bd 6ac6 9a3e 728f 6d3e
000000b0: e0db f7bc 2766 01be d55d 67be 1398 70be
000000c0: d8a3 0d3d a56b 3fbe cdb4 65be 8d93 75be
000000d0: 9ec6 d73e 33e5 8d3d 03a2 a8be befe 803e
000000e0: 03e9 dfbd 3855 a13d de27 a33e 7b28 a33e
000000f0: 5b50 863e e367 6e3e 8ad7 903e 67a0 713e
00000100: acc4 bdbe 71d0 3d3e a925 9dbd 508b 5e3e
00000110: 2253 c43c 73ee 5a3d 3d4b 5a3c f69f 2bbe
00000120: fcea e6bd b2b4 373e a7e3 433e 1e9e f73d
00000130: f9a2 3d3d 07f5 61be bb07 17be 5531 99be
00000140: b3f7 88be 09e7 21bd 1a45 27be ec5f 293e
00000150: 6bb2 8ebe ad86 f1bc ea03 ae3c 9fc6 733e
00000160: 4795 7abd 0c28 d9bc 5cac 73be 650c 0bbe
00000170: c53c 88be 0aba 8d3e 8b57 febb 192d d8bd
00000180: 267e 3abd 533b 333d a932 153e e2e5 ed3d
00000190: 532a 1abd e867 57be 7bbd f03d 3d71 6ebe
000001a0: 5e58 5d3e f7ea 9a3d dec9 ac3e d5e0 aa3d

fc2.bias f4 [9]
-0.11023593 0.0056203953 0.17357343 -0.13993362 0.10534448 0.19502659 0.03330224 0.20223781
0.31910732
00000000: 60c3 e1bd 4b2b b83b 3cbd 313e c24a 0fbe
00000010: d9be d73d 0db5 473e ee67 083d 6e17 4f3e
00000020: 0962 a33e

fc3.weight f4 [1, 9]
0.46644583 0.275046 0.09748178 -0.28337175 0.1839445 -0.11403841 -0.041893348 -0.28227174
0.2756227
00000000: fdd1 ee3e d4d2 8c3e 87a4 c73d 1a16 91be
00000010: f25b 3c3e f88c e9bd 5c98 2bbd ec85 90be
00000020: 6b1e 8d3e
