model/wine_model.pth (torch, 3558 bytes, 5 tensors)

fc1.weight f4 [12, 11]
0.20252387 0.30663738 -0.057021104 -0.11278895 0.045347363 0.33827403 -0.13317686 0.32213938
-0.053833954 -0.003803957 0.1486715 0.12656122 -0.26975203 0.25120646 0.1274174 0.2923451
0.08965916 0.27654237 0.02636421 -0.22297536 -0.23384607 0.23858635 0.2546427 0.4543927
0.12953864 0.34093615 0.09175919 0.039397113 -0.066108085 0.04488098 0.309348 0.17209987
0.1866689 0.22284102 -0.21982318 0.29165542 0.06251975 -0.043822296 0.13614802 -0.1704499
-0.0835145 -0.06635105 0.29062545 -0.28005862 -0.2986247 -0.011937518 -0.22598863 0.15924597
0.161753 -0.27594224 -0.20178011 -0.28788975 0.093384534 -0.1084579 0.08655433 -0.13962173
0.023912163 0.06519046 0.10668487 -0.04153938 0.23461252 -0.20037316 0.26060104 0.19224401
-0.19004045 -0.03465163 -0.3117839 0.021305848 -0.14371818 0.11180751 0.15020597 0.1078869
0.19754389 0.12885001 -0.19807473 0.19691522 0.14388625 0.2757624 -0.1587473 -0.15861608
-0.19686317 -0.2511558 0.0160829 0.27402556 -0.04628599 -0.17600958 0.1348776 -0.027262378
-0.3536367 -0.22424838 0.26946592 0.2921554 -0.33500633 -0.09250793 0.07517402 -0.307667
0.20220608 -0.2699403 0.17832376 -0.20974636 -0.15164994 0.22144878 0.024671674 -0.015585044
0.25198483 -0.27362627 0.21615477 -0.21892731 0.10377827 -0.024558742 0.2686558 -0.14989646
-0.26828685 -0.17491193 0.15741612 -0.27168193 -0.19523688 0.022977611 0.15020211 0.12542908
-0.1630138 0.44636425 0.04491514 0.010294297 0.05465268 0.1475813 -0.05773395 -0.010297876
-0.05416116 0.4892204 0.30710572 -0.094745226
00000000: 6b62 4f3e 93ff 9c3e f68e 69bd e5fd e6bd
00000010: 28be 393d 4132 ad3e 845f 08be 74ef a43e
00000020: fe80 5cbd cf4b 79bb 573d 183e 4499 013e
00000030: f01c 8abe 229e 803e b579 023e 42ae 953e
00000040: 399f b73d f696 8d3e c1f9 d73c a753 64be
00000050: 5875 6fbe fb4f 743e 8760 823e 29a6 e83e
00000060: c7a5 043e 2f8f ae3e 3eec bb3d de5e 213d
00000070: ad63 87bd 1ed5 373d dc62 9e3e f33a 303e
00000080: 2226 3f3e 7030 643e 5419 61be dc53 953e
00000090: 5b0a 803d 027f 33bd 636a 0b3e 6b8a 2ebe
000000a0: a609 abbd 0fe3 87bd dccc 943e d863 8fbe
000000b0: 56e5 98be 9495 43bc 9069 67be 6011 233e
000000c0: 94a2 253e 4d48 8dbe 729f 4ebe 4966 93be
000000d0: 6440 bf3d 2d1f debd 6643 b13d 00f9 0ebe
000000e0: 71e3 c33c 9382 853d 997d da3d 3225 2abd
000000f0: 443e 703e 9f2e 4dbe 806d 853e 9ddb 443e
00000100: f799 42be deee 0dbd 24a2 9fbe 9a89 ae3c
00000110: dc2a 13be 56fb e43d 98cf 193e cff3 dc3d
00000120: f248 4a3e 42f1 033e 1ad4 4abe 25a4 493e
00000130: eb56 133e bb30 8d3e a78e 22be 416c 22be
00000140: 8096 49be 7e97 80be 49c0 833c 144d 8c3e
00000150: 6196 3dbd db3b 34be 5b1d 0a3e 5a55 dfbc
00000160: df0f b5be 5ea1 65be 70f7 893e 6595 953e
00000170: f385 abbe cc74 bdbd d6f4 993d 8786 9dbe
00000180: 1c0f 4f3e 9d35 8abe 819a 363e c0c7 56be
00000190: 1f4a 1bbe 78c3 623e 401c ca3c 6a58 7fbc
000001a0: 2804 813e be18 8cbe ad57 5d3e 7b2e 60be
000001b0: b489 d43d 6a2f c9bc 418d 893e 757e 19be
000001c0: e55c 89be 1d1c 33be b131 213e e519 8bbe
000001d0: 2dec 47be 8b3b bc3c 95ce 193e 7b70 003e
000001e0: 17ed 26be db89 e43e f0f8 373d 69a9 283c
000001f0: 7ddb 5f3d 8d1f 173e 6f7a 6cbd 6cb8 28bc
00000200: 18d8 5dbd 197b fa3e f63c 9d3e c909 c2bd

fc1.bias f4 [12]
0.43716976 -0.18795009 0.32819453 -0.0534627 0.005840838 -0.09662235 -0.009543615 -0.014147837
-0.2994609 -0.15457694 -0.109659 0.22972439
00000000: b7d4 df3e fd75 40be 1d09 a83e b4fb 5abd
00000010: 8064 bf3b f0e1 c5bd d35c 1cbc 54cc 67bc
00000020: f052 99be 6b49 1ebe e694 e0bd df3c 6b3e

fc2.weight f4 [9, 12]
-0.01727036 -0.26659575 0.11821113 -0.11530744 -0.1299156 -0.25260133 -0.17486179 -0.11626348
-0.28398567 0.24564758 0.08942244 0.13285477 0.1328038 -0.21810153 0.091051444 0.06617845
0.26023912 -0.25952175 -0.21366894 -0.14519435 0.17602558 0.1558093 0.2819349 0.004577656
0.43648672 -0.1717133 0.0039268234 0.23887144 0.17861515 -0.23458798 0.13762619 0.20975922
0.13233715 -0.019101385 -0.08747365 0.27011544 0.051036187 0.25490817 0.3109844 -0.21093062
0.1563246 -0.08409772 -0.2920645 -0.06355763 -0.03357704 0.18977015 0.18579516 0.35010308
0.30876642 -0.033341665 0.47043684 -0.008353318 -0.15777919 -0.26519153 0.0011040966 -0.027204378
-0.093514815 0.17001379 0.25088647 0.07419281 -0.27032372 0.29489893 0.06643166 -0.123515405
0.1813359 -0.09118486 -0.15661222 0.20011659 0.25437528 0.089824416 0.12962009 -0.12252876
-0.2766258 -0.2577513 0.036727257 0.2394454 -0.16828708 0.09967125 -0.19345169 0.03309189
0.25989214 -0.1491642 -0.25165555 0.1181754 0.11118286 0.003704866 0.055591125 -0.19888237
-0.28415987 0.0021133563 -0.23630168 0.21513902 -0.21237268 -0.23893042 -0.032008957 0.23122212
-0.28443173 -0.2865914 -0.25376296 -0.003550846 0.13342305 -0.25233257 -0.038520403 0.24883053
-0.27543923 -0.15267749 0.079866126 0.018450847
00000000: 927a 8dbc 3d7f 88be ad18 f23d 4f26 ecbd
00000010: 9808 05be f654 81be f80e 33be 8c1b eebd
00000020: 9266 91be 0a8b 7b3e 1d23 b73d 150b 083e
00000030: b8fd 073e 0256 5fbe 2e79 ba3d 9188 873d
00000040: 103e 853e 09e0 84be 08cc 5abe d4ad 14be
00000050: 0d40 343e 798c 1f3e c559 903e 2900 963b
00000060: 307b df3e 9cd5 2fbe 95ac 803b b79a 743e
00000070: e4e6 363e d537 70be e1ed 0c3e 1fcb 563e
00000080: 6483 073e 827a 9cbc 6325 b3bd 924c 8a3e
00000090: 520b 513d 5383 823e 5939 9f3e 32fe 57be
000000a0: 8e13 203e 6d3b acbd 7a89 95be 812a 82bd
000000b0: 1488 09bd 1b53 423e 1641 3e3e b640 b33e
000000c0: a216 9e3e 4591 08bd 19dd f03e 5bdc 08bc
000000d0: de90 21be 2fc7 87be 56b7 903a b7db debc
000000e0: b284 bfbd 1818 2e3e 3174 803e 66f2 973d
000000f0: df67 8abe fefc 963e 520d 883d a5f5 fcbd
00000100: 1eb0 393e 21bf babd f45e 20be 5deb 4c3e
00000110: 7a3d 823e ddf5 b73d 21bb 043e 5cf0 fabd
00000120: e6a1 8dbe faf7 83be 526f 163d 2d31 753e
00000130: 7353 2cbe 7120 cc3d 3318 46be 5d8b 073d
00000140: 9510 853e 80be 18be ffd8 80be f205 f23d
00000150: d7b3 e33d 56cd 723b 85b3 633d d2a7 4bbe
00000160: 677d 91be 3c80 0a3b 11f9 71be 674d 5c3e
00000170: 3978 59be 2daa 74be d31b 03bd 7ec5 6c3e
00000180: 09a1 91be 1cbc 92be 38ed 81be 4fb5 68bb
00000190: 0da0 083e bc31 81be 92c7 1dbd 6ecd 7e3e
000001a0: 5f06 8dbe 7d57 1cbe da90 a33d 3b26 973c

fc2.bias f4 [9]
0.108060606 0.22530463 -0.11901847 0.088091105 0.4188355 0.12210066 0.24229413 0.22779244
0.07517849
00000000: e14e dd3d 42b6 663e f5bf f3bd 1c69 b43d
00000010: 9b71 d63e e90f fa3d f41b 783e 6c42 693e
00000020: 2ef7 993d

fc3.weight f4 [1, 9]
-0.20111069 -0.307268 0.019084945 0.2800963 0.4039117 -0.1822801 -0.002592802 0.29762816
0.23997979
00000000: f6ef 4dbe 3b52 9dbe 0858 9c3c c868 8f3e
00000010: 84cd ce3e a2a7 3abe 00ec 29bb b862 983e
00000020: 43bd 753e
