model/wine_model.pth (torch, 3558 bytes, 5 tensors)

fc1.weight f4 [12, 11]
0	0x3e6e0aa7	0.23246251
1	0xbdc777fd	-0.09739683
2	0x3e88149b	0.2657822
3	0xbe90e0d5	-0.28296533
4	0xbe6c28a9	-0.23062386
5	0x3e94502b	0.28967413
6	0xbdff2dc2	-0.124598995
7	0x3d92e9a8	0.07173473
8	0xbd9c3137	-0.076265745
9	0xbdc75125	-0.09732274
10	0xbe8a3f03	-0.270012
11	0xbe50079d	-0.20315404
12	0xbe4ab8ba	-0.1979703
13	0xbe269e2f	-0.1627128
14	0x3d984a0d	0.07435999
15	0xbe654f5e	-0.22393557
16	0x3d9a283e	0.07527207
17	0x3e583d82	0.21117213
18	0xbd21f398	-0.03953895
19	0xbe35b324	-0.17744118
20	0xbe84af6f	-0.25915095
21	0x3bbf1b55	0.0058321157
22	0xbe2dfe60	-0.16991568
23	0xbcd2d4da	-0.025736261
24	0x3cd4abbd	0.025960797
25	0x3ea7584e	0.3268456
26	0xbeb11ce1	-0.34592345
27	0xbe29c961	-0.16580726
28	0x3e3b825c	0.18311447
29	0xbe90a9b1	-0.28254464
30	0xbe8ca0c8	-0.27466416
31	0xbebd9650	-0.37028742
32	0xbda06c0d	-0.07833109
33	0x3d9182c9	0.071050234
34	0xbe20c587	-0.1570035
35	0x3e4d2a81	0.20035745
36	0x3e20c3fe	0.15699765
37	0x3bc82cb0	0.006108843
38	0x3db03bec	0.08605179
39	0xbd9c4003	-0.07629397
40	0x3d19657d	0.037450302
41	0xbe8cd2df	-0.27504632
42	0xbe7b217d	-0.24524494
43	0xbe313baf	-0.17307924
44	0x3e9eddf4	0.31028712
45	0x3ea8bebe	0.32958025
46	0x3dd3e402	0.103462234
47	0x3d8dddd9	0.0692708
48	0xbd1825f9	-0.03714559
49	0xbe2b0108	-0.16699612
50	0x3e69ad4a	0.22820011
51	0xbd6a8a91	-0.057261053
52	0xbdbbdcbe	-0.091729626
53	0x3e4bab27	0.19889508
54	0x3eb6e62d	0.35722485
55	0x3eb42121	0.35181525
56	0xbd84e989	-0.06489856
57	0x3e789b80	0.24278069
58	0x3cd5004e	0.026001122
59	0xbd844b79	-0.06459708
60	0xbd6a81c6	-0.057252668
61	0xbd882973	-0.06648531
62	0x3d860861	0.06544567
63	0x3ea06e4a	0.31334144
64	0x3e7599b8	0.2398442
65	0x3e93c126	0.28858298
66	0xbd9a9d66	-0.075495526
67	0xbd5a4667	-0.053289797
68	0xbdafb8fe	-0.08580206
69	0xbd24070d	-0.040045787
70	0xbc390f85	-0.011295204
71	0xbc8f506a	-0.0174944
72	0x3ca82fef	0.020530669
73	0x3e456797	0.19277798
74	0xbd7e3d73	-0.06207032
75	0xbbe5bdb0	-0.007011138
76	0xbe53ece9	-0.20695843
77	0x3d96995b	0.07353469
78	0xbe3c12e6	-0.18366584
79	0x3e53ba90	0.20676637
80	0xbe8fcef2	-0.28087574
81	0x3c8ca53f	0.01716864
82	0xbe9f04a8	-0.3105824
83	0x3e58e167	0.21179734
84	0x3ab26a70	0.0013612043
85	0x3e35a32c	0.17738026
86	0xbdd2a9d6	-0.102863
87	0xbe78655d	-0.24257417
88	0x3ebb3924	0.36567032
89	0x3eb77c9d	0.3583726
90	0x3bb33e6e	0.0054700887
91	0x3da70dba	0.08156915
92	0x3e1c1e45	0.15245922
93	0x3d8b9d5e	0.06817125
94	0xbdbbe037	-0.09173625
95	0x3e831073	0.25598487
96	0x3eda2211	0.42604116
97	0x3eb1493a	0.3462618
98	0x3dda85f8	0.10670084
99	0xbe4d6607	-0.20058452
100	0xbee3151e	-0.4435205
101	0x3e5334e6	0.20625648
102	0x3eb1c03a	0.3471697
103	0xbe8c6f61	-0.27428725
104	0xbd82e9d6	-0.06392257
105	0x3da64adf	0.08119749
106	0x3d703e3d	0.058653105
107	0x3e0c7d14	0.13719589
108	0xbebd4c0c	-0.36972082
109	0x3d44caf1	0.048045103
110	0x3e5cc654	0.21560031
111	0x3ea543fe	0.32278436
112	0xbde4026b	-0.11133274
113	0x3e02987a	0.12753478
114	0x3e919123	0.28431043
115	0x3e08ccac	0.13359326
116	0xbd296f15	-0.0413657
117	0x3e1d72c0	0.15375805
118	0x3e9f442c	0.311067
119	0x3eeceab3	0.4627281
120	0x3db3d6df	0.08781218
121	0x3e5b7d26	0.21434459
122	0x3c9734bd	0.018457765
123	0x3c820a32	0.015874002
124	0x3e2ee665	0.17080076
125	0x3e8994bd	0.2687129
126	0x3da6ad66	0.08138542
127	0xbd6e63b7	-0.058200564
128	0xbd8b2dd4	-0.067958504
129	0xbd2137c4	-0.039359823
130	0x3e9cf440	0.30655098
131	0x3d6e5c92	0.05819375

fc1.bias f4 [12]
0	0x3d9e8304	0.07739833
1	0x3e3b8b89	0.18314947
2	0x3e268f71	0.16265656
3	0x3e814cbc	0.25253856
4	0x3ebf0ffe	0.3731689
5	0x3e549c1a	0.20762673
6	0x3dc4761a	0.095928386
7	0xbe313821	-0.17306568
8	0x3e25eb33	0.16203003
9	0xbe86b735	-0.2631165
10	0x3e00f2b2	0.12592581
11	0x3e480ece	0.19536898

fc2.weight f4 [9, 12]
0	0x3e916c28	0.2840283
1	0xbe5bacc2	-0.2145262
2	0xbcf1694e	-0.029469159
3	0x3e302534	0.17201692
4	0xbe598495	-0.21241982
5	0x3d500de3	0.050794493
6	0xbe878198	-0.2646606
7	0x3da1b3b5	0.078956045
8	0x3e7ba67b	0.24575226
9	0xbdfc6525	-0.12323979
10	0x3db62e3d	0.08895538
11	0xbe875882	-0.26434714
12	0xbe435350	-0.1907475
13	0xbe75c8d5	-0.24002393
14	0x3c77eb3f	0.015131771
15	0x3e0f231d	0.13978238
16	0x3ca8a9b7	0.020588739
17	0xbd91ca2d	-0.0711864
18	0xbadd5089	-0.0016884963
19	0xbdcd88da	-0.10035868
20	0xbe56bab5	-0.2096966
21	0x3e1ca491	0.15297152
22	0xbe7b52b4	-0.24543267
23	0xbe92b331	-0.28652337
24	0x3e7db21d	0.24774976
25	0x3e568484	0.20948988
26	0x3e957573	0.2919117
27	0x3e40ee45	0.18840893
28	0xbdbdc10d	-0.09265337
29	0xbd2f7566	-0.04283657
30	0xbd0e85b0	-0.034795463
31	0xbbbf1dcf	-0.005832411
32	0xbd41d626	-0.04732337
33	0x3eb20df1	0.3477626
34	0xbe29db27	-0.16587506
35	0xbe5adb2a	-0.21372667
36	0x3d9405df	0.07227682
37	0x3cecf7d0	0.02892676
38	0x3e8e25d7	0.27763245
39	0x3e5e11ca	0.21686473
40	0xbc9c7919	-0.019100713
41	0x3e39c5fe	0.18141934
42	0xbd9399fc	-0.072071046
43	0xbc6f4473	-0.014603722
44	0xbe4030de	-0.18768641
45	0x3e38fb6b	0.18064658
46	0x3ca4b08c	0.020103715
47	0xbe6baf52	-0.23016098
48	0x3e63273b	0.22182934
49	0xbe206106	-0.15662012
50	0xbd95c13f	-0.073122494
51	0x3e3f6085	0.18689163
52	0x3e998c93	0.29990062
53	0x3ef79a6e	0.48360008
54	0x3ea405e7	0.32035753
55	0x3dec37b7	0.11534064
56	0x3ed827d2	0.4221788
57	0xbe0f5e68	-0.14000857
58	0x3e459c21	0.1929784
59	0x3df5b493	0.119973324
60	0xbdd1b7dc	-0.102401465
61	0x3dd0ee09	0.102016516
62	0x3d229245	0.039690275
63	0xbd2c812f	-0.042115387
64	0xbde2e1c0	-0.11078215
65	0xbe1b6b05	-0.15177543
66	0x3b07c47d	0.0020716481
67	0x3e28870f	0.16457771
68	0x3de00583	0.10938551
69	0x3e16bc39	0.14720239
70	0x3e094e56	0.13408789
71	0xbe982882	-0.29718405
72	0xbdc45605	-0.095867194
73	0xbe65cb05	-0.22440727
74	0x3d5e068c	0.054205462
75	0xbddf8f53	-0.10916009
76	0xbe6fe54c	-0.23427314
77	0x3e917071	0.28406098
78	0xbe52ec27	-0.20597897
79	0xbe7511cb	-0.23932569
80	0xbe2a06f8	-0.16604221
81	0x3d2e6c0d	0.042583514
82	0x3d0213a7	0.031757023
83	0xbd4c92cb	-0.04994468
84	0xbe8969af	-0.26838443
85	0xbe9b00f6	-0.3027417
86	0xbe4ada97	-0.19809948
87	0xbdf5e6eb	-0.12006935
88	0x3e30a486	0.1725026
89	0x3bdc6166	0.006725478
90	0xbdb58fc4	-0.08865312
91	0x3e5a0a56	0.21293005
92	0xbc15fc4b	-0.00915439
93	0xbe9c297f	-0.3050041
94	0xbe05cc8e	-0.13066313
95	0xbe90f521	-0.2831202
96	0xbe31db74	-0.17368871
97	0x3e6775ce	0.22603533
98	0xbe0c190e	-0.13681433
99	0xbe42df08	-0.19030392
100	0xbe36bfb5	-0.17846568
101	0x3d07d76e	0.033164434
102	0x3d163799	0.036674116
103	0x3b2b1431	0.0026104564
104	0xbd6c5ff5	-0.0577087
105	0x3e23c615	0.15993531
106	0xbe1fe8c9	-0.15616144
107	0x3cb507b5	0.022098402

fc2.bias f4 [9]
0	0xbe8f0355	-0.2793223
1	0x3e8f358c	0.2797054
2	0xbe665cf1	-0.22496392
3	0x3e250a8d	0.16117306
4	0xbdc8965c	-0.09794304
5	0xbdfd904f	-0.1238104
6	0x3d0f450b	0.034977954
7	0xbe4adcf3	-0.19810848
8	0xbe1b067a	-0.1513919

fc3.weight f4 [1, 9]
0	0xbe2445b5	-0.16042216
1	0xbd2e94e0	-0.042622447
2	0xbe8f92b2	-0.28041607
3	0xbe973c2d	-0.29538098
4	0x3eb143ba	0.34621984
5	0xbd82f540	-0.06394434
6	0xbde1bba6	-0.11022119
7	0xbe245a7b	-0.1605014
8	0xbc77fc2c	-0.015135806
