wine_model.pth (torch, 3558 bytes, 5 tensors)

fc1.weight f4 [12, 11]
0	0xbe268056	-0.16259894
1	0x3cb29a57	0.02180211
2	0xbebe1754	-0.37127173
3	0xbe926607	-0.28593466
4	0xbd6c77b0	-0.05773133
5	0x3df01ec0	0.11724615
6	0xbe109e59	-0.14122905
7	0x3d534dd5	0.0515879
8	0xbe0398ba	-0.1285123
9	0xbe9cd390	-0.3063016
10	0x3e900924	0.28131974
11	0x3e8b16d4	0.27165854
12	0x3da4323d	0.08017395
13	0x3cdd7c76	0.027036887
14	0x3e6e41df	0.23267315
15	0xbe838cd5	-0.25693384
16	0x3cb74c82	0.022375349
17	0x3d36395d	0.0444883
18	0x3d5124c9	0.05106047
19	0xbcb54003	-0.02212525
20	0x3e829b89	0.2550929
21	0x3ea39e7b	0.31956849
22	0xbe0db143	-0.13837151
23	0xbe87069a	-0.26372224
24	0xbc4d81ac	-0.012543123
25	0x3c01293e	0.007883368
26	0x3e40e5ba	0.18837634
27	0xbc9411af	-0.018074838
28	0x3e5accab	0.21367137
29	0x3e8af7a6	0.27142066
30	0x3dc7fd9f	0.09765171
31	0x3c10a36a	0.008828023
32	0x3c886de0	0.016653955
33	0xbe0ba607	-0.13637553
34	0x3e5fff84	0.21874815
35	0x3e7fb82e	0.24972603
36	0x3e4ec884	0.20193678
37	0xbe25dac0	-0.16196728
38	0xbe17067e	-0.1474857
39	0x3e6f0ea5	0.2334543
40	0xbe92944b	-0.28628764
41	0x3cd74c66	0.026281547
42	0x3d7bb67b	0.061453324
43	0x3e51417a	0.20435134
44	0xbdf0a5d6	-0.11750381
45	0x3e0f86f5	0.14016326
46	0x3bc83ce2	0.0061107734
47	0xbdff69af	-0.124713294
48	0xbe9ea962	-0.30988604
49	0xbe76f7e8	-0.24118006
50	0x3ea75883	0.32684717
51	0x3dff55fd	0.12467573
52	0xbe800e53	-0.2501093
53	0xbe92a64a	-0.28642493
54	0xbd99af4f	-0.075041406
55	0xbe469bbe	-0.19395348
56	0xbe6d3981	-0.23166467
57	0xbcd31ed9	-0.025771545
58	0x3e206003	0.15661626
59	0xbebf06d1	-0.37309888
60	0xbe80abbc	-0.25131023
61	0x3e76baad	0.24094649
62	0x3d866c0d	0.06563578
63	0x3e6256c1	0.22103406
64	0xbe6e7021	-0.23284961
65	0xbe743413	-0.2384799
66	0x3e03b02d	0.12860174
67	0xbe64064e	-0.2226803
68	0x3da4f9f4	0.08055487
69	0xbe9007dd	-0.28131
70	0x3d381956	0.044946037
71	0x3e24da4d	0.160989
72	0xbce1756a	-0.027521808
73	0xbd411a68	-0.047144324
74	0xbe1c2d55	-0.15251668
75	0x3d171082	0.036880977
76	0x3e93f8a5	0.28900638
77	0x3e58a5c9	0.21156992
78	0xbe4a4ad0	-0.19755101
79	0x3e8221bc	0.25416362
80	0xbe33e8d4	-0.17569286
81	0x3de3c3fc	0.111213654
82	0xbe8bb425	-0.27285877
83	0x3d28a77c	0.04117535
84	0x3e835c0a	0.25656158
85	0xbe2fdb36	-0.17173466
86	0x3e18709b	0.14886706
87	0xbe02a78a	-0.12759224
88	0x3e6c5d31	0.23082425
89	0xbd6326df	-0.055456992
90	0x3e735b65	0.23765333
91	0x3dab63d1	0.08368648
92	0x3e9294e7	0.28629228
93	0x3dbbc07d	0.091675736
94	0xbe8d75d6	-0.27628964
95	0x3e161b37	0.14658819
96	0xbe429c91	-0.19005038
97	0xbe96988f	-0.29413268
98	0xbe340167	-0.1757866
99	0xbad8f264	-0.001655173
100	0xbe8ef495	-0.27920976
101	0x3d66e27a	0.05636833
102	0x3d958fa5	0.07302789
103	0x3e40221a	0.18763009
104	0x3e6b6225	0.22986658
105	0xbe4d5bb3	-0.20054512
106	0xbe637aa3	-0.22214751
107	0xbe1d2dd7	-0.15349518
108	0xbdbd6aec	-0.09248909
109	0xbd92eea2	-0.07174422
110	0x3ea54fd0	0.32287455
111	0xbd8f507c	-0.06997773
112	0x3ed94dd9	0.42442206
113	0x3dc481f4	0.09595099
114	0x3ed707cd	0.4199814
115	0x3e2f25bc	0.17104238
116	0xbdbe8b74	-0.09303942
117	0x3ec3d461	0.3824797
118	0xbd9a8ea2	-0.07546736
119	0x3e8373fe	0.25674433
120	0x3d4487e7	0.04798117
121	0xbe7b5dee	-0.2454755
122	0xbcbae0aa	-0.022812206
123	0xbe9c610a	-0.30542785
124	0xbe121280	-0.1426487
125	0xbe8727f4	-0.2639767
126	0xbde9e78f	-0.114211194
127	0xbe67d482	-0.22639659
128	0x3e95015b	0.29102597
129	0xbbf301a5	-0.0074159675
130	0xbd00d838	-0.031456202
131	0x3e771b7f	0.24131583

fc1.bias f4 [12]
0	0xbe705e2f	-0.23473428
1	0x3caa14ce	0.020761874
2	0xbe57d934	-0.2107895
3	0xbd2d91b5	-0.042375285
4	0xbd634da1	-0.055493955
5	0xbe91d274	-0.28480875
6	0xbe8ce863	-0.27521047
7	0x3e12d074	0.14337331
8	0xbdf3126c	-0.11868748
9	0x3db0b8d6	0.08629005
10	0x3e674091	0.22583224
11	0x3e11abdc	0.14225715

fc2.weight f4 [9, 12]
0	0xbde7f094	-0.113251835
1	0xbe64b827	-0.22335874
2	0xbe64cf2a	-0.22344652
3	0xbd8f1ffc	-0.069885224
4	0x3e1736ea	0.14767042
5	0x3e8224e9	0.25418785
6	0xbe5e0051	-0.21679808
7	0x3d45351f	0.048146363
8	0x3e5fe9a0	0.21866465
9	0x3d4700e2	0.048584826
10	0x3dea342a	0.11435731
11	0xbe029524	-0.12752205
12	0x3e72b0e6	0.23700294
13	0xbd9e77cd	-0.07737694
14	0xbd113f2d	-0.03546064
15	0xbde85e32	-0.11346091
16	0x3d5af05d	0.053451885
17	0x3cc6522b	0.024209103
18	0x3e52b10c	0.2057535
19	0x3cd88eee	0.026435342
20	0xbe8bda07	-0.2731478
21	0xbdf5c88d	-0.12001143
22	0xbe842ce7	-0.25815508
23	0x3e0cdc1d	0.13755842
24	0x3e3bc40d	0.18336506
25	0x3e05b475	0.1305712
26	0x3e141e92	0.14464787
27	0x3da4a477	0.08039182
28	0x3dd9c6c6	0.10633616
29	0x3d4aee7a	0.049543835
30	0xbe0ade87	-0.1356145
31	0x3e77fed6	0.24218306
32	0x3e19cd91	0.15019824
33	0x3e22a34c	0.15882605
34	0xbecc79bc	-0.39936626
35	0xbdb2834c	-0.08716449
36	0xbdec9dcb	-0.11553534
37	0x3eba1d58	0.36350513
38	0xbcbdd267	-0.023171617
39	0xbe275d8e	-0.16344282
40	0x3e1580b7	0.14599882
41	0xbe69cbc2	-0.22831634
42	0xbd19d7a3	-0.037559163
43	0x3e359841	0.17733862
44	0x3e62cc89	0.22148336
45	0x3e56e80d	0.20986958
46	0x3ec7821d	0.38966456
47	0xbe883038	-0.26599288
48	0xbe3754c6	-0.17903432
49	0x3e242342	0.16029075
50	0x3e7f9ca3	0.24962096
51	0xbe339a0a	-0.1753923
52	0x3d91706f	0.07101523
53	0x3db70253	0.0893599
54	0xbca16929	-0.019703465
55	0x3e0cdb3a	0.13755503
56	0xbcaa6d22	-0.020803992
57	0xbe93124f	-0.28724906
58	0xbee79353	-0.45229587
59	0xbac7cc24	-0.0015243334
60	0x3e486085	0.1956807
61	0x3e3e277c	0.1856975
62	0x3e94bb67	0.29049227
63	0xbdd9b643	-0.10630467
64	0x3e47de27	0.19518338
65	0xbcb9e603	-0.022692686
66	0xbe5a79a4	-0.21335465
67	0xbe0921c5	-0.13391788
68	0x3d79e0ee	0.061005525
69	0xbe665ad1	-0.22495581
70	0xbe6e2bc8	-0.23258889
71	0x3d531c70	0.051540792
72	0x3e8a9033	0.2706314
73	0xbcaf7eaf	-0.021422712
74	0xbdec7968	-0.11546594
75	0x3da1b4b8	0.078957975
76	0x3c4c7526	0.012479102
77	0x3e8183e0	0.25295925
78	0xbc677200	-0.014126301
79	0x3dd09b82	0.10185911
80	0xbcbe523a	-0.023232568
81	0x3e758d13	0.23979597
82	0x3d92906e	0.07156454
83	0xbe07a007	-0.1324464
84	0xbe782ae7	-0.24235116
85	0x3e39440b	0.18092363
86	0xbe1c4633	-0.15261154
87	0x3e829588	0.25504708
88	0x3d8644ac	0.06556067
89	0x3d25a0c3	0.040436517
90	0x3d2716ae	0.040793113
91	0xbdea1876	-0.11430447
92	0x3d81f557	0.06345623
93	0x3e4b0f4f	0.19830059
94	0x3ef02218	0.4690101
95	0x3dd7f282	0.105443016
96	0xba1688fa	-0.0005742457
97	0xbe307fdd	-0.17236276
98	0xbe79c1ea	-0.24390379
99	0xbd9064ec	-0.07050499
100	0xbe0e4474	-0.138933
101	0xbd9e4495	-0.07727925
102	0xbe4c5ddb	-0.19957678
103	0x3ddf30cd	0.1089798
104	0xbdec6bc6	-0.11543994
105	0xbe7d1265	-0.24714048
106	0xbe7ab76a	-0.2448403
107	0x3e88721f	0.26649567

fc2.bias f4 [9]
0	0xbbb048af	-0.0053797583
1	0x3e0efb25	0.13962992
2	0xbdfcfae2	-0.123525396
3	0x3dcf818f	0.10132133
4	0x3e593003	0.21209721
5	0x3ca37471	0.019952985
6	0x3e0eb5c3	0.13936524
7	0x3e2322ae	0.15931198
8	0x3e86f7db	0.26360974

fc3.weight f4 [1, 9]
0	0xbe8ced5a	-0.27524835
1	0x3cb32941	0.021870257
2	0xbe864ef2	-0.26232105
3	0x3e6db73f	0.23214434
4	0xbdf3cf87	-0.11904817
5	0xbdf29636	-0.11845057
6	0xbb952cc1	-0.004552454
7	0x3e94376e	0.2894854
8	0x3d090256	0.033449493
